Metrics/file.pt (torch, 34180 bytes, 11 tensors)

transitions f4 [22, 22]
000000 00 40 1c c6 00 40 1c c6 00 40 1c c6 00 40 1c c6
       -10000.0 -10000.0 -10000.0 -10000.0
000010 00 40 1c c6 00 40 1c c6 00 40 1c c6 00 40 1c c6
       -10000.0 -10000.0 -10000.0 -10000.0
000020 00 40 1c c6 00 40 1c c6 00 40 1c c6 00 40 1c c6
       -10000.0 -10000.0 -10000.0 -10000.0
000030 00 40 1c c6 00 40 1c c6 00 40 1c c6 00 40 1c c6
       -10000.0 -10000.0 -10000.0 -10000.0
000040 00 40 1c c6 00 40 1c c6 00 40 1c c6 00 40 1c c6
       -10000.0 -10000.0 -10000.0 -10000.0
000050 00 40 1c c6 00 40 1c c6 d6 fe 89 3f 00 40 1c c6
       -10000.0 -10000.0 1.0780895 -10000.0
000060 74 ac 27 be a5 b2 99 bf e1 df 09 3f 26 1e 28 3f
       -0.1637438 -1.2007643 0.5385724 0.65671
000070 19 c7 c4 3f 0f 45 e1 3e 14 eb f5 be 07 39 b4 3f
       1.537326 0.43998 -0.48030913 1.4079903
000080 7f 68 35 bf a0 89 d7 3e 6b 28 22 40 dd 93 c6 3d
       -0.70862573 0.42097187 2.533717 0.096961714
000090 90 cf 2f 3f b8 db 3e c0 9c fd d5 3d 84 e1 f8 be
       0.6867609 -2.9821606 0.10448763 -0.48609555
0000a0 38 23 eb 3f e9 44 ac bf 4f 97 16 c0 d3 90 d4 bf
       1.8370123 -1.345853 -2.3529851 -1.6606697
0000b0 4d c4 33 bf 00 40 1c c6 ca 3e 9b 3f 3f 8d c5 3d
       -0.70221406 -10000.0 1.2128537 0.09646081
0000c0 ba 8e 5b bf 42 8c c8 3f 28 24 89 bd 53 88 36 bf
       -0.8576466 1.5667803 -0.066963494 -0.71301764
0000d0 72 fd 3c 3f 0a 60 90 bf 40 13 b4 be fd 6f 88 bf
       0.73824227 -1.1279309 -0.35170937 -1.0659176
0000e0 62 1c ff be ae 63 e9 3e bf 83 13 3f 79 71 82 bf
       -0.49826342 0.45583862 0.57622904 -1.0190879
0000f0 1d 89 2e 3d fa ed 68 3f f5 12 71 3f 92 1b 76 bd
       0.04261123 0.90988123 0.9416955 -0.060084887
000100 19 86 d6 3e 86 fb b3 be e3 0f 80 bf 00 40 1c c6
       0.41899183 -0.35152835 -1.0004848 -10000.0
000110 34 25 b0 3f 2e dc d5 bd 92 fc 8e bf a4 b4 29 3f
       1.3761353 -0.104423866 -1.1170828 0.6629126
000120 4b c6 fe 3f 39 36 14 bf f0 40 04 bf 2d 4d 08 c0
       1.9904264 -0.5789524 -0.51661587 -2.1297104
000130 ed 27 d5 3e 07 da b7 be 9b 08 85 bf 08 86 cc be
       0.41632023 -0.3590853 -1.0393251 -0.39946008
000140 9b 87 34 bf bf f7 85 3f 6a 55 42 bf 47 22 0d 3f
       -0.7051942 1.0466231 -0.7591158 0.5513043
000150 64 0d 21 bf 2d 8b 9e 3f 00 5f 0e bf 1d f0 da be
       -0.6291106 1.2386223 -0.5561371 -0.42761317
000160 99 ff 86 3f 00 40 1c c6 cc 2e 20 3e 6f e9 6f 3f
       1.0546752 -10000.0 0.15642852 0.93715566
000170 39 ce 17 bc 34 5f 9f bf e5 35 9c 3f 81 26 2d 3f
       -0.009265476 -1.2450929 1.2203947 0.6763688
000180 41 68 e6 3f b1 57 fc bf 54 94 df be 51 06 7d 3f
       1.8000566 -1.9714261 -0.43667853 0.98837763
000190 a3 ec 51 3d c7 ce 79 3e 0c 0e 9e 3f 19 2b ee 3d
       0.051251065 0.24395286 1.2348037 0.11629314
0001a0 ac a7 04 3e fb 5d 56 40 07 ff ad bf 1c bd a3 3f
       0.12954587 3.349486 -1.3593453 1.2792087
0001b0 e7 34 be be 9f 5a 92 3f 68 fb 01 3f 00 40 1c c6
       -0.37149736 1.1433905 0.5077424 -10000.0
0001c0 fd b1 05 3f 47 3a a0 bf 1d b4 83 3e 4e 72 43 bf
       0.52224714 -1.2517785 0.25723353 -0.7634629
0001d0 3a 08 20 3f 8f bd 2c bf 96 2b b5 3d f6 d2 35 3e
       0.6251255 -0.67476743 0.08846204 0.17756256
0001e0 5a d9 67 3f c5 48 ac 3f 39 75 2d be 5d c5 82 be
       0.9056603 1.3459707 -0.16939248 -0.255412
0001f0 72 4a 7c 3f 8a b1 c9 3e d2 4d c8 3e f7 da 15 bf
       0.98551095 0.39393264 0.39121872 -0.5853724
000200 7e 98 ca bf 49 08 43 3d 97 87 21 3f 67 15 84 3f
       -1.5827787 0.047615323 0.6309752 1.0319031
000210 7a f5 cf be 00 40 1c c6 64 1d 46 3f 36 85 99 3e
       -0.4061697 -10000.0 0.77388597 0.29984444
000220 f3 10 fb 3d 75 2e 3a be 23 34 91 bd ea 8c 11 bf
       0.12259092 -0.18181784 -0.070900224 -0.5685564
000230 c8 a8 48 3f 80 e1 1b c0 96 fc f7 be 1b ed 87 bc
       0.7838254 -2.4356384 -0.48434895 -0.016592553
000240 1a b2 a0 be b9 25 a7 bf 42 06 48 3f f8 67 cd be
       -0.3138588 -1.3058387 0.7813455 -0.40118384
000250 e3 c6 f1 bf 38 a3 b5 3f 00 69 a1 bf 6d dd ad bc
       -1.888882 1.4190435 -1.2610168 -0.021223748
000260 7c 54 aa bf b0 f1 a3 3e 8d e6 93 be 00 40 1c c6
       -1.3307033 0.3202033 -0.28886834 -10000.0
000270 3c d9 f1 be e2 df 1a 3f d4 7e 90 bf 24 82 02 bf
       -0.4723605 0.6049787 -1.1288705 -0.5097983
000280 7c 4e 91 3d 30 a7 22 3e 94 56 d2 be f3 67 3b 3c
       0.07095048 0.1588409 -0.4108168 0.011438358
000290 67 01 d7 3d 94 12 a0 3f 19 b7 4d bf 50 0a 8c bd
       0.10498314 1.250567 -0.8035751 -0.068379045
0002a0 ad a2 e8 3e 22 07 95 3e 76 e8 5a 3f 5f 5b 8e 3f
       0.45436612 0.29107004 0.8551096 1.1121634
0002b0 03 ac 5f 3f dc 3f a6 bf 5b ec ec bf 48 91 94 3e
       0.87371844 -1.2988238 -1.850963 0.2901709
0002c0 d2 f9 ac be 00 40 1c c6 20 ed 55 3e cc 06 9f 3e
       -0.33784348 -10000.0 0.20891237 0.31059873
0002d0 d5 fe 15 3f 80 61 42 3f 33 79 8f be 3b 6f 19 3e
       0.5859197 0.75930023 -0.28022155 0.14983837
0002e0 d2 68 82 be 2d 60 c2 bf 19 6b e5 3e 01 16 3a 3f
       -0.25470597 -1.51856 0.44808272 0.72689825
0002f0 7d 70 e3 be 76 eb 1c be a7 fe 78 be 26 34 da 3e
       -0.4442176 -0.15324196 -0.24315892 0.4261791
000300 ec 62 db 3f 56 f2 7a 3f 2f 94 fb 3d 10 6b af be
       1.7139564 0.98026025 0.12284123 -0.3426137
000310 b9 79 ff be ad 6d f0 3e 9d 00 65 bf 00 40 1c c6
       -0.49897555 0.46958676 -0.8945406 -10000.0
000320 3a f5 91 bf cb 80 18 bf c2 10 d9 bf d0 11 11 3d
       -1.1402962 -0.5957152 -1.6958239 0.035417378
000330 4c 05 99 3d 4e 17 05 bf ca 08 8f 3f 6d c0 0a bf
       0.074717134 -0.51988685 1.1174557 -0.5419987
000340 5d 8b b3 3e c4 60 b0 3e 97 83 44 3f a3 aa 74 3e
       0.35067263 0.34448826 0.7676329 0.23893218
000350 35 1b 04 bf ad a5 e6 bd 76 df bf 3d b9 1c e1 3f
       -0.51604015 -0.11262069 0.09368794 1.758689
000360 51 24 8e bf eb 03 9c 3f 41 26 22 be c3 3d 9a be
       -1.1104833 1.2188696 -0.15834905 -0.30125245
000370 b2 a2 33 bf 00 40 1c c6 6d 91 7f bf 9f 11 92 bf
       -0.7017013 -10000.0 -0.9983128 -1.1411628
000380 dd c8 ea bd 8f 6c 0c 3f b0 ee cf 3e 09 3c 90 3f
       -0.11464093 0.5485315 0.40611792 1.1268321
000390 04 7d af 3e c0 16 ac bf 09 81 be bf 87 81 07 be
       0.34275067 -1.3444443 -1.4883128 -0.13233005
0003a0 c2 91 b6 3e cd 28 36 3f f8 de a6 bf 32 0d 8b 3d
       0.3565808 0.7115601 -1.3036795 0.06789626
0003b0 cd 63 b6 3e da 83 97 3f a8 59 90 be 7d 58 0b bf
       0.35623017 1.1837113 -0.28193402 -0.544319
0003c0 97 51 30 3f c9 8b 88 3f 38 82 02 c0 00 40 1c c6
       0.68874496 1.0667659 -2.039198 -10000.0
0003d0 62 36 27 3f 41 a3 8b bf e9 95 2f 3f 0f c7 79 bf
       0.65317357 -1.0909196 0.6858812 -0.97569364
0003e0 53 3f 97 3e 6b af a3 bf 5a be a0 bd 81 fe 27 3f
       0.295405 -1.2787908 -0.07848807 0.6562272
0003f0 49 17 4c bf 43 0e 73 be 85 43 55 c0 10 ba 1d be
       -0.7972303 -0.23735909 -3.332246 -0.15403008

lstm.weight_ih_l0 f4 [20, 168]
000000 be 20 6e bd 3a ec 63 3d 07 b2 ec 3e 60 2f 6a 3e
       -0.058136694 0.055645205 0.46229574 0.22869635
000010 e3 90 18 3e 77 65 89 be 2f ef 9e be 94 00 cb bc
       0.1489902 -0.26835224 -0.31041858 -0.02478055
000020 6b 19 72 bc 4d 03 17 bd 2f b0 c4 3e 60 4e df 3b
       -0.014776568 -0.036868382 0.38415667 0.006814763
000030 27 f9 c5 3e 21 16 78 3e 4d b3 b2 bd 35 f2 25 3e
       0.3866665 0.24227192 -0.08725605 0.16205676
000040 1a d2 a8 3e af 5f 98 be ae 03 09 be 92 e6 da be
       0.32972795 -0.297605 -0.1338031 -0.42754036
000050 8f 4d a2 be 8b 7c 79 bc 4c fd b2 be 0e 98 81 be
       -0.31699798 -0.015227447 -0.34958875 -0.2531132
000060 f5 54 b6 be be ec cd be b4 3a bb 3e df da 3c be
       -0.35611692 -0.40219682 0.36568224 -0.18442868
000070 ed c8 83 bd 1b c7 a5 bd 9f 0d 9b 3d f1 0c 32 bd
       -0.06434808 -0.08094617 0.075709574 -0.043469373
000080 db 6a db bd 99 7b d1 3e c6 55 60 be 6e 19 93 3e
       -0.107137404 0.4091461 -0.2190772 0.2873034
000090 89 a7 03 be 58 1f cb 3e cf 75 3a be 88 51 4a 3d
       -0.12856878 0.3967235 -0.18209003 0.04939416
0000a0 d5 b5 00 3d 6b 31 76 be 6d 1a ea 3d 86 80 df 3d
       0.03142341 -0.24042289 0.114308216 0.10913186
0000b0 62 3b e8 bc ca fe 95 be 4b 01 58 be 49 32 4e 3e
       -0.028348628 -0.2929595 -0.21094243 0.2013637
0000c0 59 88 4e 3e 8f 3d 3e be 94 f2 ae be 0e 81 13 be
       0.201692 -0.1857817 -0.34169447 -0.14404699
0000d0 ae 13 64 bd 01 cf d8 be 36 dd 2d ba 0a fa 6c be
       -0.05568283 -0.4234543 -0.0006632389 -0.23142257
0000e0 fc 45 f7 bc 6d 20 b9 3e 80 a6 95 be e2 41 aa be
       -0.030184738 0.3615755 -0.29228592 -0.3325339
0000f0 63 da 49 be 1d 2c ea 3d 50 eb 94 be 91 ba d0 be
       -0.19712214 0.11434195 -0.2908578 -0.4076734
000100 48 4c 03 3d e6 ef a4 be 29 d2 5c be 5d cb a8 be
       0.03205517 -0.32214278 -0.21564545 -0.32967654
000110 7e 1c c0 3e 34 fd 14 3d ca e9 1f 3e 99 88 ab 3e
       0.37521738 0.036374286 0.15616527 0.33502653
000120 be 8e ed bb aa 65 cd be 53 9a f2 be 74 21 7c 3e
       -0.007249682 -0.40116626 -0.47383365 0.24622136
000130 12 8d 63 bd 95 18 88 3e 8e 7b 13 3e 8f 8a f2 3d
       -0.055554457 0.26581255 0.14402601 0.11842834
000140 0a 7c 97 be 96 e5 ac 3e c4 ac d3 3d 68 40 9a 3e
       -0.29586822 0.3376891 0.10335687 0.30127263
000150 86 5d 24 3e fd c9 45 be 44 3e 61 be a0 59 ac 3e
       0.16051301 -0.19315334 -0.21996409 0.33662128
000160 89 91 66 3e e2 13 77 3e 6c 31 60 be 28 92 a6 3e
       0.22516455 0.24128678 -0.21893853 0.32533383
000170 53 28 74 be f7 25 a8 be 3a 78 9d be 62 71 01 3e
       -0.23843507 -0.32841465 -0.30755788 0.12640908
000180 8a ac d8 bd a2 c8 7a 3e 1c 04 bb 3e af 40 c8 be
       -0.10579784 0.24490598 0.36526573 -0.3911185
000190 19 62 51 3d 50 d9 d4 3e ed 9f a7 be f9 7c fc 3d
       0.051118944 0.41572046 -0.327392 0.12328524
0001a0 fb 32 e0 3e eb 1d c7 be 6d d7 7b be 83 1b 51 bd
       0.43788895 -0.38890013 -0.24593897 -0.051051628
0001b0 c3 56 6c be de c8 0e be 3a 55 8d 3c e3 5a e0 be
       -0.23079972 -0.13943812 0.017252553 -0.4381934
0001c0 54 c7 fa bb cc 4c a9 bd 89 ca 83 3e 00 95 91 3e
       -0.0076531563 -0.08266601 0.2574046 0.2843399
0001d0 9b c0 c2 be 90 a7 ec be 3e ad 25 be 36 81 15 3e
       -0.3803757 -0.4622159 -0.16179368 0.14600071
0001e0 9f 39 10 be 38 f2 58 be fa 1c 90 be 4f 18 03 3e
       -0.1408448 -0.21186149 -0.28147107 0.12802242
0001f0 a2 21 92 3d 9c ba 21 3e 86 ae fe 3e a4 d4 be bd
       0.07135321 0.15793842 0.49742526 -0.09317902
000200 72 d9 8e 3e 7d c1 8e 3e 61 2a da 3d b4 bc e8 3d
       0.27900273 0.27881995 0.106526144 0.11364117
000210 a0 79 d2 bd 86 8a 7b 3e 7f ca 59 3e 39 0c 3b be
       -0.102771044 0.24564561 0.21268652 -0.18266381
000220 15 74 a1 3e 01 41 85 3e d3 ef 61 3e 5c ad 34 3e
       0.31533876 0.26026157 0.22064142 0.17644256
000230 14 dc 94 3e 09 eb 3f 3e 77 0a c5 be 50 c3 81 3e
       0.29074156 0.18742003 -0.38484547 0.25344324
000240 fb 05 34 be b6 32 31 be 68 e2 4c 3e 6c 1d 8b 3e
       -0.17580406 -0.17304501 0.20008242 0.27170885
000250 26 cb cb be c0 20 af be 5a c5 35 be 85 8c b1 bb
       -0.39803427 -0.34204674 -0.17751065 -0.0054183626
000260 aa 99 44 3e 9f 86 35 3d 7b 9d 8c 3e 91 1b 34 3e
       0.19199243 0.044317838 0.27463898 0.17588641
000270 80 0a b7 be 78 ae c1 3e ea 72 e6 bd 1e 40 e6 ba
       -0.35750198 0.37828422 -0.11252387 -0.0017566716
000280 24 c5 a4 be 6e 4a d7 3d b7 90 0f be 32 d2 40 3e
       -0.32181656 0.10512243 -0.14020048 0.18830183
000290 ca 1b d1 be a8 b2 34 3e 97 fc db be 1b c9 66 be
       -0.40841514 0.17646277 -0.42966148 -0.22537653
0002a0 d4 72 3b be 50 d8 73 bd 03 ff a9 be d3 82 cd be
       -0.18305522 -0.059532464 -0.3320237 -0.40138873
0002b0 a3 39 7d 3d 2c 83 d8 be 35 a5 71 3d 26 4e 7c be
       0.061822545 -0.42287576 0.058995444 -0.24639186
0002c0 56 9e 78 3e f0 a9 df be 5e 62 9f be d0 2f d2 bd
       0.2427915 -0.4368434 -0.31129736 -0.10263026
0002d0 45 ae 23 be b5 e1 54 3e d6 ba 9d be 03 d2 0c be
       -0.15984447 0.20789225 -0.30806607 -0.13751988
0002e0 39 98 96 bd c5 fa db be 27 f7 4b be 6a dc 79 3d
       -0.07353253 -0.4296476 -0.199185 0.06100122
0002f0 b6 18 03 be 44 4b 65 3d 30 75 4d be ae 19 de be
       -0.12802395 0.055979982 -0.20064235 -0.43378967
000300 8b 49 c0 3e 99 a6 9e be 72 43 b2 bd ee 5c d8 3e
       0.3755611 -0.3098648 -0.087042704 0.422584
000310 b5 30 db be 90 b3 64 bd 81 c7 94 3e 9a 9e 99 3e
       -0.42810598 -0.055835307 0.2905846 0.30003816
000320 52 33 46 3e 3f a3 b2 bc 8a bb 88 be 12 1b af be
       0.19355515 -0.021806357 -0.2670558 -0.3420034
000330 41 46 d8 be 08 d8 14 3e e2 20 0e be 8d bd c0 be
       -0.422411 0.14535534 -0.13879731 -0.37644616
000340 75 1b 44 3e 95 f7 3f be 04 49 7f 3e f3 ac d9 be
       0.19151099 -0.18746789 0.24930197 -0.42514762
000350 c2 de 43 3c ac 56 82 3e ad 7e a4 be 38 fd 80 3e
       0.011954965 0.2545675 -0.32127896 0.2519319
000360 a5 f4 0a 3e 1e 33 6d 3c 35 e5 6d 3d fc b6 ac 3e
       0.13569887 0.014477519 0.058079917 0.33733356
000370 08 35 de bd b1 cc 39 be 24 9b 34 be 5e 3c 39 be
       -0.10849959 -0.1814449 -0.17637306 -0.18089435
000380 fc d4 09 3e aa 77 54 be 80 c0 ba be 57 f1 cd 3d
       0.13460153 -0.20748773 -0.3647499 0.100557975
000390 20 e9 1c 3e d5 92 e8 3c 7b 13 b0 3e d0 78 a8 be
       0.15323305 0.028390327 0.34389862 -0.32904673
0003a0 bd b7 b0 3e 7e ad d7 3e 4c 32 d0 3e 0d 42 9a 3e
       0.3451518 0.42124552 0.40663373 0.30128518
0003b0 bd d3 12 3e 0d 73 87 be d5 d0 c2 be 11 2f bc be
       0.14338584 -0.26454964 -0.3804995 -0.3675466
0003c0 ce ab 38 be 32 2c a8 3e 2b 7c 33 be 53 00 a4 bd
       -0.18034288 0.32846218 -0.17527835 -0.08007874
0003d0 83 e8 f1 bd 78 7e 6f bc 42 78 ed 3e 91 0c 92 3e
       -0.11811926 -0.014617555 0.46380812 0.28525212
0003e0 4d 50 5a be df 3c cf be 0b 3e 82 be 10 97 89 be
       -0.21319695 -0.40476128 -0.2543796 -0.26873064
0003f0 c6 32 97 bd 6b 75 59 be 31 29 34 3d d8 7d db 3e
       -0.07382731 -0.21236198 0.043984596 0.4286945

lstm.weight_hh_l0 f4 [20, 5]
000000 d8 fc db 3e 5a a2 6d be 08 77 38 3d 8c 92 16 3b
       0.42966342 -0.23206463 0.045035392 0.0022975532
000010 ae 59 96 3e aa c6 ab 3e 26 9a 95 3c 96 01 63 3e
       0.29365295 0.33550006 0.01826198 0.22168574
000020 e7 ab d9 3e 86 59 05 3e d0 74 d1 3e 01 35 70 3e
       0.42513964 0.13022432 0.40909433 0.2345772
000030 f3 e0 af 3e 70 f5 ae be 18 86 78 bd 91 7c d0 3c
       0.3435131 -0.3417163 -0.060674757 0.025450023
000040 d7 e6 cf be 10 a4 a8 3e 8f 22 c3 3e 68 09 b2 bc
       -0.40605804 0.3293767 0.38112304 -0.021733
000050 1f f1 24 be 2e 0c 8e be 1b 79 5a be 92 a5 80 bd
       -0.16107605 -0.27743667 -0.2133526 -0.0628158
000060 7e 12 cc be 92 1f 2b 3e e0 57 c4 3e ec d1 1f b9
       -0.39857858 0.16711262 0.38348293 -0.00015241624
000070 d8 1d 1b be 99 47 31 3c 62 4c 18 3e d6 c6 36 3d
       -0.15148103 0.010820293 0.14872888 0.04462322
000080 65 c6 ca be 9e f5 eb be 1f 77 e7 3c 9f 5b a8 be
       -0.39604488 -0.4608583 0.028255044 -0.328824
000090 89 80 d3 3e 3a 75 38 be bf ef b9 3d 4f 99 03 3e
       0.41309002 -0.18013468 0.09078931 0.12851451
0000a0 12 e1 cd 3e 75 c8 63 3e cf 75 4b 3c 8d a1 b9 be
       0.40210778 0.22244437 0.0124182245 -0.36256066
0000b0 db f1 47 be ab f6 d8 3e fc 12 b7 3e b1 a3 6d be
       -0.19525854 0.42375693 0.3575667 -0.23206975
0000c0 ad 00 f8 bd 5e 96 87 be ae f6 06 be d2 6f e3 3d
       -0.12109504 -0.2648191 -0.13180038 0.111053124
0000d0 15 df 4f 3d 32 cf cb bc dd cd a8 3d 07 18 6f 3e
       0.050749857 -0.024879072 0.0824239 0.2334901
0000e0 ec 35 91 bc 9f b7 9c 3e 44 5f d5 3d 01 fc 92 3d
       -0.017725907 0.30608842 0.10418561 0.07176972
0000f0 f1 c6 43 3e 0d 5b a0 3d 11 50 92 3e 54 c8 e4 3d
       0.19118859 0.078298666 0.2857671 0.11171022
000100 4f e8 84 3e 64 67 3f be 1e 66 a0 be 2e 0f d3 be
       0.25958487 -0.18691784 -0.3132791 -0.4122252
000110 58 b2 b0 be eb ca d8 3e 7d 0e dd 3e 72 0f 23 3e
       -0.34511065 0.42342314 0.43175116 0.1592386
000120 46 07 ab be b9 cd 9e 3e 22 c2 58 3e f8 8c d5 3d
       -0.33403987 0.3101633 0.21167806 0.10427278
000130 28 20 c6 3e dc 18 c8 3e 6a 65 f3 bd 85 0d 14 be
       0.38696408 0.39081466 -0.118845776 -0.14458282
000140 90 67 de bd cf ec d0 bd c7 3d 97 be 8f 14 c3 3e
       -0.10859597 -0.10201418 -0.2953932 0.38101622
000150 db 77 91 be bc 38 29 be d3 22 e4 bd 37 e8 bb 3e
       -0.28411755 -0.16525549 -0.11139455 0.36700603
000160 24 94 ba bd 2b 7e 4b be 0c 2b aa be 30 c4 26 3c
       -0.09110287 -0.19872348 -0.33235967 0.010178611
000170 0d 78 1c bf 70 8d 9a bd 88 68 84 bc 89 cf 45 3e
       -0.6112068 -0.07546508 -0.016163126 0.1931745
000180 0b f2 2f 3e 71 73 72 3d 24 d3 20 be ab ab 4d be
       0.17182176 0.059192125 -0.15705544 -0.20085017

lstm.bias_ih_l0 f4 [20]
000000 c0 39 cd 3e e0 fa 5a 3e d9 25 21 3e 61 a7 75 3e
       0.40083122 0.21384764 0.15737094 0.23989631
000010 cf 41 80 be b5 f1 75 3e 5d 1a 5b be 8d 62 74 3c
       -0.25050208 0.24017985 -0.21396776 0.014916074
000020 96 02 f5 bd 02 f0 f8 bd ca 2b 55 3e 74 c9 06 3b
       -0.11963384 -0.12155153 0.20817485 0.0020566853
000030 c3 7f c3 be 23 a1 cb 3e 65 10 7f 3e ce c5 a0 bc
       -0.38183412 0.39771375 0.24908598 -0.01962557
000040 f7 03 37 3e fb 3a ec bc 6a a4 8d 3e a7 23 a8 3c
       0.17872606 -0.028836718 0.276645 0.020524813

lstm.bias_hh_l0 f4 [20]
000000 ee 7c 0c 3e 32 f7 b2 be f2 9d 83 be 3e cc 00 be
       0.13719532 -0.3495422 -0.2570644 -0.12577912
000010 78 0d 5e be cd 03 a8 3e a8 26 4c 3e ad ae a5 bd
       -0.21684825 0.328154 0.19936621 -0.080899574
000020 93 9b 88 bd d5 f4 49 3d b9 7f 01 3e f3 dc d7 be
       -0.066702984 0.049305756 0.12646379 -0.42160758
000030 df 47 e5 3d 8e 37 b0 be 37 fe 85 be e4 7e d0 be
       0.11195349 -0.34417385 -0.26170513 -0.4072181
000040 d2 0b 90 be e8 33 b5 be 6c 19 78 3e bc 40 ac 3e
       -0.28134018 -0.35391164 0.24228448 0.33643138

lstm.weight_ih_l0_reverse f4 [20, 168]
000000 50 1e 86 3e 9b 7c a1 bd 5d 63 3a 3e 2c 44 d5 bd
       0.26195002 -0.07885095 0.18201967 -0.104133934
000010 f4 48 97 be cd 18 0d 3e a6 bf 89 3e 35 d8 3a be
       -0.29547846 0.13778992 0.2690403 -0.18246539
000020 05 b3 b7 bd d8 dc 59 3e 86 41 06 be f8 a8 82 bc
       -0.08969692 0.21275651 -0.13110933 -0.015949711
000030 39 d9 aa 3e 3c 9e ca 3e b8 5d 16 be 91 30 6a be
       0.33368853 0.39573848 -0.14684188 -0.22870089
000040 58 bd e4 3c 01 e5 c9 3d 1c cc 80 be 7a ad 50 be
       0.027922317 0.09858132 -0.25155723 -0.20378676
000050 cc bc 3d 3e 1f 42 76 be 2e 9c 75 be 9d d8 55 3e
       0.18529052 -0.2404866 -0.23985359 0.20883413
000060 c8 2f df be 14 b6 c4 bc 4d ed c0 3e a6 9b a9 be
       -0.43591142 -0.024012603 0.37681046 -0.33126563
000070 0f 85 35 be 1f 1b a3 3e b1 82 c3 be b7 db d5 3d
       -0.17726539 0.3185663 -0.38185647 0.10442298
000080 eb 30 9d 3e 5e 0c 9d 3e 9c d5 c1 bd 93 00 cc 3e
       0.30701384 0.30673498 -0.09464571 0.39844188
000090 98 33 3c 3e d2 0a 22 be 3a 10 45 be c3 87 ff 3d
       0.18379056 -0.1582444 -0.19244471 0.12477066
0000a0 d4 0c fb bb ed 33 2d 3e 01 f8 2c bd 38 38 e5 38
       -0.0076614413 0.1691434 -0.042228702 0.000109300425
0000b0 96 30 b6 3e 45 05 ae bd e6 d6 cd 3e 74 a9 c4 be
       0.35583943 -0.08497099 0.40203017 -0.38410532
0000c0 83 f8 a1 3e 2a 60 0c ba b8 8a 5e be 4d 25 b9 be
       0.31634912 -0.0005354906 -0.21732605 -0.3616127
0000d0 bd f9 26 3e fd cc a5 be e0 61 ba bd 0b 69 b1 be
       0.16306205 -0.32382956 -0.091006994 -0.34650454
0000e0 38 78 09 be 85 ed 60 be f9 29 ae 3e df 03 99 3e
       -0.13424766 -0.21965607 0.34016398 0.29885766
0000f0 b0 22 36 be 2a 4c f7 bd 07 f0 3d 3e 70 64 ca 3e
       -0.1778667 -0.12075074 0.18548594 0.39529753
000100 6a 9b 3d 3e 27 85 96 be 4b c4 a8 be 55 c4 b7 bd
       0.18516317 -0.29398462 -0.3296226 -0.08972994
000110 6f d0 07 3e 37 4c 05 3e 28 6e cb bd 66 71 d4 3e
       0.13263105 0.13017355 -0.0993312 0.41492766
000120 ad 52 94 3e f6 52 ef 3e a8 fd 19 bc 68 a7 59 bd
       0.28969327 0.46742982 -0.009398855 -0.053138167
000130 09 d9 95 3e f6 8e b0 be bc 86 e4 3e 1d 0f c4 3e
       0.29267147 -0.3448407 0.44634044 0.3829278
000140 9d 9f a8 be 85 e1 de be 4a fd d5 be 87 45 2c 3e
       -0.32934275 -0.43531433 -0.41794807 0.16823398
000150 71 59 9c be 7f be c8 3c b7 d0 fd bd 9b 0e d4 3e
       -0.30536988 0.024504898 -0.12393325 0.41417393
000160 a8 89 73 3c 57 d5 9b 3e 3c 09 ac be 79 fb ec 3d
       0.014864363 0.30436203 -0.33600795 0.11571402
000170 c2 8d 85 3e e3 57 c5 be 72 0d b6 be b0 9d 98 be
       0.26084715 -0.38543615 -0.35557133 -0.29807806
000180 fd f0 39 bd 6a 65 67 bd 84 3c ac bd e4 52 a8 3e
       -0.04539584 -0.0564932 -0.0840998 0.3287574
000190 f5 54 af 3e b0 c9 9f be 6d d6 94 be 76 2b 8d 3e
       0.34244505 -0.31208563 -0.29069844 0.2757222
0001a0 64 8c 08 bd 31 fd a0 3e fa ec a5 be 47 07 3c 3d
       -0.033337012 0.3144317 -0.3240736 0.045905378
0001b0 12 cc 2f be 52 ba 71 bd b7 3b f9 3e c0 4b cc bd
       -0.1716769 -0.05901558 0.4867837 -0.09975386
0001c0 96 04 a0 3e 91 d7 1f be f0 9c 9d be 79 d5 3d 3e
       0.312535 -0.15609576 -0.30783796 0.18538465
0001d0 f5 7e a4 bc 4d 08 8d be 8a e5 ea be 08 57 d9 3d
       -0.02008007 -0.27545395 -0.4587825 0.10612303
0001e0 ba 4d cf be 7f fb 49 3e 07 15 91 be 6b 87 0b 3c
       -0.40488988 0.19724844 -0.28336355 0.008516173
0001f0 00 ad d4 3c c1 43 b5 3e 25 7c 9e be 93 10 a1 3e
       0.0259614 0.35403255 -0.3095409 0.31457958
000200 9f ea 8d 3e fa 3e c3 bc 0b c4 fe be d7 14 d8 3e
       0.27718064 -0.02383374 -0.49758944 0.422034
000210 63 23 bb be f5 3b 42 3e 1e 5f bf be 5b 75 23 3c
       -0.36550435 0.18968184 -0.37377256 0.00997671
000220 c5 ac d2 3e 94 ee 4d 3e bb 78 a2 be 7a e8 9b 3e
       0.41147438 0.20110542 -0.31732735 0.30450803
000230 78 1e 07 3e 84 81 65 3e 7d c7 c9 3e 8f 77 8e bd
       0.13195217 0.22412688 0.3941001 -0.06956398
000240 19 33 14 3e 6c 5a c5 be ad 2f e4 bc d1 84 b9 be
       0.14472617 -0.3854555 -0.027854765 -0.36234143
000250 ec 3b 19 3e 34 0e 97 3e 87 27 b9 3e 78 df f6 bd
       0.14964265 0.29503024 0.3616297 -0.12054342
000260 0b c8 22 bd cb 78 5a 3e 49 d0 71 be cb ed 9b 3e
       -0.039741557 0.21335141 -0.2361461 0.3045486
000270 89 4a a9 bd 65 33 89 3e 3d ac 9e 3e 3e 69 d9 be
       -0.082661696 0.26797023 0.30990782 -0.42463106
000280 e2 f9 38 bd 0f 76 98 be e2 d9 0a 3e 49 a8 6c bd
       -0.04516018 -0.29777572 0.13559678 -0.057777677
000290 ef e7 a7 be 94 53 d9 be b3 ba 96 3e ac e4 57 be
       -0.3279414 -0.42446578 0.29439315 -0.21083325
0002a0 da d5 e2 bc 76 dd 16 be 3c 0b ad 3e b5 86 91 be
       -0.027689863 -0.14732918 0.33797634 -0.28423086
0002b0 f4 a2 40 be 79 38 e1 be ef 08 27 bc 18 2c 5c be
       -0.18812162 -0.43988398 -0.010195001 -0.21501195
0002c0 47 e3 1f 3e d8 9e a6 be af 44 dc 3e 13 d8 53 be
       0.15614043 -0.32543063 0.4302115 -0.20687895
0002d0 c9 73 83 3e 83 ab 13 3e 7b 1b d5 3e ee 58 89 bd
       0.25674275 0.14420895 0.41622528 -0.06706415
0002e0 ec 6e 50 3e 7c b1 d0 be 2a ce 80 be 01 d4 27 3e
       0.20354813 -0.4076041 -0.2515729 0.16389467
0002f0 6a 6b e2 be 0e 07 00 3e 4e 9e cf 3c 91 ca 2c bd
       -0.44222575 0.12502691 0.02534404 -0.04218537
000300 59 d8 38 3e 6f 4e 56 3c ef d7 ab be 00 9f 08 3e
       0.1805128 0.013080223 -0.33563182 0.13341904
000310 00 47 0d be 10 9e 77 be 9f f6 e9 be d9 f0 a5 be
       -0.13796616 -0.2418139 -0.4569597 -0.32410315
000320 37 b6 bc bb 72 16 8f 3e 18 c7 84 3e 86 86 8b 3e
       -0.0057590264 0.27946812 0.25933146 0.2725107
000330 cd 96 f7 3c ec cb 8d 3e ae 36 94 3e 20 47 ef bc
       0.030223275 0.27694643 0.28947967 -0.02920872
000340 c5 8a 2e be d7 83 1f 3e 1d cb 2a be 24 37 12 bd
       -0.17045124 0.15577637 -0.16679044 -0.035697117
000350 e9 67 b1 be c7 6c ae 3e 51 77 67 3e f6 72 8a be
       -0.3464959 0.34067366 0.2260411 -0.27040833
000360 0f 0e d0 3e 77 01 fc 3d 6b 49 2c bd 9b c8 d2 3e
       0.40635726 0.12304967 -0.042062204 0.41168675
000370 8b 23 44 3d 07 e3 32 3e fc b1 62 be 53 a7 24 3e
       0.04788546 0.17469417 -0.22138208 0.16079454
000380 21 20 62 be b9 ea d6 3e a9 ab 97 3e 4a 1f a8 be
       -0.22082569 0.41975954 0.29623154 -0.32836372
000390 a4 da ee 3d a9 05 a3 3e 6a ed e4 bd c6 57 85 3e
       0.11662796 0.31840256 -0.11178096 0.26043528
0003a0 68 56 0e be e7 8f 7a be b9 53 8f be 02 e3 32 3e
       -0.13900149 -0.24468957 -0.27993563 0.17469409
0003b0 6a 94 04 3e e8 2c 88 3e 78 0d c2 3d 97 e4 07 3e
       0.1294724 0.2659676 0.09475225 0.13270794
0003c0 aa a7 e9 be 6d 40 74 be 8b b7 11 bc 68 90 a0 3e
       -0.4563573 -0.23852701 -0.008893858 0.31360173
0003d0 73 f3 8d 3d 65 9b 0a 3b 47 bb 0e be 50 b6 c0 be
       0.069312 0.0021149751 -0.13938628 -0.37639093
0003e0 de 5d 82 be 66 62 9c be e5 88 ca 3e 79 2d cf 3e
       -0.2546224 -0.30543822 0.39557567 0.4046438
0003f0 d1 e1 54 3e 47 41 8c 3e 00 bc e2 3d 1b 3e 5a be
       0.20789267 0.27393553 0.110710144 -0.21312754

lstm.weight_hh_l0_reverse f4 [20, 5]
000000 fa a0 b3 3e f7 2a 0d 3e ce 9f c2 3e a4 8b 87 3e
       0.35083753 0.13785921 0.38012546 0.26473725
000010 a6 8f b6 3e ff 65 a2 3d 6c 9f b9 be 46 ca 97 3d
       0.3565647 0.079296105 -0.36254442 0.074116275
000020 99 d5 52 be 05 e0 85 be a5 67 18 be d9 5c 00 3d
       -0.20589294 -0.26147476 -0.14883287 0.031338546
000030 fd 94 04 3d cb e2 77 3e d2 1f 5e be c7 f2 80 be
       0.03236865 0.24207608 -0.21691826 -0.25185224
000040 91 1a 9d 3e 77 36 fe 3d 3b 42 73 be f4 af 1f be
       0.3068433 0.12412732 -0.23755734 -0.15594465
000050 c5 cc c7 3e 39 a0 4f be 78 01 ca 3d 7d 67 9a 3e
       0.39023414 -0.20275964 0.098635614 0.3015708
000060 8e 4e bd 3e 46 2a c7 be 86 7e e0 3d 8f 02 d0 ba
       0.36973995 -0.3889944 0.109616324 -0.0015869903
000070 ce ba b1 3d ac af a8 3d 6a f3 86 3d 91 93 1e be
       0.08678208 0.08236632 0.06589396 -0.1548598
000080 d8 48 57 3e e6 3b a1 be 07 0e 95 be ac 57 08 be
       0.21023881 -0.3149101 -0.29112265 -0.13314694
000090 14 28 aa be c1 68 5a be f0 b5 23 3e 02 6e 95 3e
       -0.33233702 -0.21329023 0.15987372 0.29185492
0000a0 15 88 be be e7 70 11 3d 66 b7 a9 3e b0 b0 c6 bd
       -0.37213197 0.035508063 0.33147734 -0.09701669
0000b0 82 49 88 be 75 c0 ca 3e c7 d0 a7 3e d3 be 39 be
       -0.26618582 0.39599958 0.32776472 -0.181392
0000c0 5c 27 c3 3e 45 46 a7 be 4d 1c d5 be 12 46 2b 3e
       0.38115966 -0.326708 -0.41623154 0.16725948
0000d0 ea 5d ed be 6a 58 b1 bc 09 12 9c bd 74 99 42 be
       -0.46360713 -0.021648604 -0.076206274 -0.1900385
0000e0 04 ee 8c 3e ea bd b4 bc b0 66 c0 be 29 9c 40 3e
       0.27525342 -0.022063214 -0.37578344 0.1880957
0000f0 8e 5a 96 be fa 76 e3 be 2f 4b db bc 90 61 a1 3e
       -0.29365963 -0.4442671 -0.026769249 0.31519747
000100 e9 f4 ad be 72 39 d5 bd 7e fd c0 3c 63 24 87 be
       -0.33975914 -0.104113474 0.023558374 -0.26394948
000110 ef ae d5 3d e0 58 82 be b4 5a 41 3e 5f f2 e8 3d
       0.104337566 -0.2545843 0.18882257 0.113743536
000120 e9 34 c0 be 3a 68 ba be e6 58 8a be ae 5b b8 3d
       -0.37540367 -0.36407644 -0.2702095 0.090018615
000130 15 1d 7b 3e 65 ea 28 3d 70 b8 68 be dd ce 4b be
       0.24522813 0.04123916 -0.22726607 -0.19903131
000140 f0 0a 70 be 40 c2 90 3e 87 36 d7 3d 8f f0 c1 3e
       -0.23441672 0.282732 0.10508447 0.37878844
000150 33 26 32 be 9e 90 dd be e1 37 e4 3e d2 b1 7e 3c
       -0.17397384 -0.43274397 0.44573882 0.015545325
000160 77 22 c8 3d 7b 11 90 3e 87 74 71 be 38 2f 3f be
       0.09772199 0.28138337 -0.23579608 -0.18670356
000170 88 bc e2 be 34 ef 60 bc 48 f3 21 bc a9 13 56 3d
       -0.44284463 -0.0137289055 -0.009884663 0.052264843
000180 8f e6 96 be 29 da 85 3b 51 79 28 3e 3a b2 88 be
       -0.29472777 0.0040848446 0.16452529 -0.26698476

lstm.bias_ih_l0_reverse f4 [20]
000000 8c 43 a9 bd cb 9e 9b 3e c9 cf ab be ab 17 58 3e
       -0.08264837 0.30394587 -0.33556965 0.21102779
000010 e2 49 28 3d cf 47 d7 3e cb c6 8d be 5f 61 5b 3e
       0.041086085 0.42046973 -0.2769073 0.21423863
000020 ce ca 4b 3e 60 bd 87 be 85 56 a3 be cd 48 33 3e
       0.19901583 -0.2651167 -0.31901947 0.1750824
000030 a5 87 65 be 73 a7 08 3d 5b c4 03 be 68 e1 d8 3d
       -0.22415026 0.033362817 -0.12867872 0.10589868
000040 f2 e1 4d be 05 cc d6 3e 8c c0 b2 3e 35 72 b0 3e
       -0.20105723 0.4195253 0.34912527 0.34462133

lstm.bias_hh_l0_reverse f4 [20]
000000 dd 64 c4 3e 4a bf 72 3e e2 ec b9 be 30 5b ad be
       0.38358203 0.23705783 -0.3631354 -0.33858633
000010 97 fa 48 3d 39 60 a8 3e 2b 75 29 bd 51 7f 29 be
       0.049067106 0.32885912 -0.041371506 -0.16552474
000020 82 0e a8 3e 67 ef aa 3e a9 7a a8 3e 83 f4 d7 3e
       0.3282357 0.33385774 0.32906082 0.42178735
000030 64 fd f4 bd d2 0f 95 3e de 5d 9d 3d 3f 1b 82 bd
       -0.11962393 0.29113632 0.07683919 -0.06352853
000040 14 c0 ac be d5 fe 7b 3d 5e 45 a6 3e 34 4c d6 bd
       -0.33740294 0.061522324 0.32474798 -0.10463753

hidden2tag.weight f4 [22, 10]
000000 79 a2 41 be 22 a3 fb bd 55 df 86 3e 72 b7 62 3e
       -0.18909635 -0.122869745 0.26342264 0.22140291
000010 57 10 47 be e1 72 46 be 56 c0 78 3e 54 1f 5b 3c
       -0.19439827 -0.1937976 0.2429212 0.013374168
000020 ec c1 57 3d ff 6a 99 3e 14 47 ec bd 8a f5 3f be
       0.052675173 0.29964444 -0.115369946 -0.1874601
000030 c4 fd da 3d 7e ff 21 bd 39 e2 ae 3d 18 ab 03 3e
       0.10692933 -0.039550297 0.08539242 0.12858236
000040 97 59 44 3e f2 48 2d 3e f2 fe bf 3d 55 fa 7e 3e
       0.19174801 0.16922358 0.09374799 0.24900182
000050 f9 a2 98 3e 4f 04 83 3e 2f f8 a5 3e 59 31 89 be
       0.29811838 0.25589225 0.32415912 -0.26795462
000060 d2 8c 9d 3e da 55 d0 3e 00 58 c0 3e f2 8a 7d be
       0.307715 0.406905 0.3756714 -0.24760035
000070 00 e0 89 3e 39 cd d1 3d 6d c6 42 3c 37 2b 82 be
       0.2692871 0.10244221 0.011888129 -0.25423595
000080 1e f3 43 be 76 c3 0c bd 08 84 c3 be 69 f6 3d bd
       -0.1913571 -0.034366094 -0.3818667 -0.046377573
000090 dc f0 1a be 0e 8c 9d bd eb 16 e1 be 55 ef c0 3c
       -0.15130943 -0.07692729 -0.43962798 0.023551622
0000a0 c9 44 9a 3e 6b 99 46 3e 01 94 f8 bd e1 0c 8d bd
       0.30130604 0.19394462 -0.121376045 -0.06887222
0000b0 8c 3a 45 3e ff 9c f6 bd 22 e2 c4 bd 89 23 a4 be
       0.19260615 -0.120416634 -0.09613444 -0.3205836
0000c0 2c db 20 be 4b c5 68 3e f1 bb a7 be 57 c7 6a 3d
       -0.15708607 0.22731511 -0.32760575 0.05731901
0000d0 5c 2a 00 be d7 2c a0 3d 00 20 25 be 56 c7 43 be
       -0.12516159 0.078210525 -0.16125488 -0.1911901
0000e0 cd ad cc be c1 07 69 bc d9 5d 62 be 26 d2 da 3e
       -0.3997635 -0.01422304 -0.22106113 0.42738456
0000f0 d5 4d d1 bd 38 c1 88 3d 7e 44 50 3d 42 12 d0 3d
       -0.102199234 0.066774786 0.05084657 0.101597324
000100 a9 e7 fb bd 1a 03 65 3e b4 8a 38 be 10 65 1c bd
       -0.12300045 0.22364464 -0.18021661 -0.03818232
000110 81 37 a9 be f6 1c b6 3e c6 4c 51 3d ff cd 08 3f
       -0.3305016 0.3556897 0.051098607 0.53439325
000120 f6 1b 8e 3e af 11 63 3e 7f dc 07 3e a2 fa fc 3e
       0.27755708 0.22174715 0.13267706 0.49409968
000130 a3 86 5e 3e 3e 1e 9b 3c 19 94 bf 3e fe d6 ef bc
       0.21731047 0.018935319 0.37417677 -0.029277321
000140 eb 07 5e be dd 22 1b 3e 82 74 e2 3c 09 d6 04 3e
       -0.21682708 0.15150018 0.027643446 0.12972273
000150 96 2a ba be ef 3e 46 3c 41 b8 ad be c8 78 a8 3e
       -0.36360615 0.0120999655 -0.33929637 0.3290465
000160 3e 72 b7 be 55 fe 0c bf e0 c9 02 3f 9e d4 26 be
       -0.35829347 -0.5507558 0.51089287 -0.16292045
000170 2a e9 e4 bd 27 38 69 3e 84 b8 91 3e 8d 20 2f be
       -0.11177285 0.22775327 0.28461087 -0.17102261
000180 8a 43 ca 3e 56 f4 8d be 7d db 41 3e b2 f2 6c bd
       0.39504653 -0.27725476 0.18931384 -0.05784864
000190 cf 55 56 3e c7 46 14 be 2f 46 2c be 6c 26 8f 3e
       0.20931171 -0.14480124 -0.16823648 0.27959
0001a0 36 4a 4d 3e a3 9a 2a bd 5a b9 70 bc 53 df c7 bd
       0.2004784 -0.04165138 -0.014692629 -0.097593926
0001b0 aa 95 66 3d f1 95 8f 3d ce 45 7b bd a7 c2 1e 3e
       0.056295075 0.07011021 -0.061345868 0.15503941
0001c0 0a c7 cd be 52 44 a1 3d 76 14 a6 be 58 9e 31 be
       -0.40190917 0.07874359 -0.32437485 -0.1734556
0001d0 53 72 b4 be b0 21 bf bd 1c 78 cc bd 20 4f 24 3e
       -0.35243472 -0.09332597 -0.099838465 0.16045809
0001e0 28 fe 8c be 00 62 02 bf 86 71 b2 be 6e ea 9e be
       -0.27537656 -0.50930786 -0.34852237 -0.3103823
0001f0 0b df 2e be 43 9d 1a 3c 3c f4 b6 3e 52 20 b9 be
       -0.17077272 0.009436908 0.3573321 -0.3615747
000200 57 ac c8 3e 59 82 04 bf 94 30 2e be 0a af 0a 3d
       0.39193985 -0.51761395 -0.17010719 0.033858337
000210 29 0a 24 be d5 e6 a5 bd 7c fb ed be 73 ee d6 be
       -0.16019501 -0.08100668 -0.4648093 -0.41978797
000220 2b 6b 60 be 8b 0b 93 bc 55 4d d1 3d 14 e5 54 3e
       -0.21915881 -0.01794984 0.10219828 0.20790511
000230 77 bf 77 3e 38 e8 4d 3e b3 45 c6 3d 33 1c 02 be
       0.24194132 0.20108116 0.09681263 -0.1270607
000240 b4 56 03 3e 3a 89 53 3e 7f 0f b3 bc 65 b7 77 bc
       0.12826043 0.20657817 -0.021857975 -0.015119408
000250 04 21 80 3c 87 dd bd 3d 0a 9e ee bd fe cd 04 3e
       0.015640743 0.092707686 -0.11651237 0.12969205
000260 99 db d9 3d 9a 0c 08 bd 1a f6 23 be f0 10 a6 be
       0.10637588 -0.033215143 -0.16011849 -0.32434797
000270 7a 38 97 be ba 0d b5 3e 63 16 3c 3e 22 fc 60 3d
       -0.29535276 0.35362035 0.18367915 0.054927953
000280 88 b8 f0 3d 2c 4e 5b bd 39 d9 55 be af af ce 3c
       0.117539465 -0.053541347 -0.20883645 0.025230257
000290 0e 88 47 be 86 60 66 be 90 cd 84 be 6f 2d c2 bd
       -0.19485494 -0.22497758 -0.25938082 -0.09481322
0002a0 58 c1 cc be c9 16 fe bd a9 ef cf be 5b 48 c6 be
       -0.3999126 -0.1240669 -0.40612534 -0.38727078
0002b0 7a 8c af 3c 04 22 2a be e6 88 02 3e c2 d7 ea 3d
       0.02142929 -0.16614538 0.12747535 0.11466934
0002c0 25 a3 10 be 68 f7 8e 3e 04 81 4c 3b 42 36 f8 bc
       -0.14124735 0.2792313 0.003120483 -0.03029931
0002d0 9c 91 17 be f0 e0 a5 bc 3e 59 61 be da c2 96 3e
       -0.1480164 -0.02024886 -0.220067 0.29445535
0002e0 04 ed e7 be f7 0c d9 be 09 f6 29 be 06 7b b9 3e
       -0.45298016 -0.42392704 -0.16597761 0.36226672
0002f0 88 49 20 bd 5f 77 fe 3c f2 eb a9 3d 6b 46 af be
       -0.039132625 0.03106278 0.08296956 -0.34233412
000300 f2 e1 80 be b1 2d 0a be 36 9b e7 be 79 ec 62 3c
       -0.25172383 -0.13493992 -0.45235604 0.013850325
000310 d5 24 4d be ca cd a4 3d 7f de cd be cc 3c a9 3e
       -0.20033582 0.08047064 -0.40208814 0.33054197
000320 86 08 ea be fc bc bd be 8f fc b0 be e8 58 94 bd
       -0.45709628 -0.37058246 -0.34567687 -0.0724352
000330 4b be 8c be b7 00 e7 be 46 4c f1 3d 06 25 10 3f
       -0.27488932 -0.45117733 0.11782126 0.56306493
000340 78 83 ba bb b9 f9 4c bd c1 93 b8 be 0d 33 93 3c
       -0.005691942 -0.05004284 -0.36050227 0.017968679
000350 d4 67 93 3d d4 5e dc 3d c0 16 43 be 9a b2 84 be
       0.07197538 0.107602745 -0.19051647 -0.25917512
000360 5e 29 35 be 28 21 cb 3d be fd be be e0 85 90 3e
       -0.17691562 0.099184334 -0.37302965 0.2822714

hidden2tag.bias f4 [22]
000000 48 f3 72 3e e0 a7 3c 3e 3f 45 05 3d 66 0b 4c 3c
       0.23725617 0.18423414 0.03253674 0.0124538895
000010 74 ce 32 be 10 e9 c2 bd 48 85 30 be 0d 3d 6d 3b
       -0.17461568 -0.095171094 -0.17238343 0.003619972
000020 b8 3e a7 3e 0b 52 b3 3c f5 96 55 be d4 61 88 bd
       0.32665038 0.021889707 -0.20858367 -0.06659284
000030 3e da c4 bd 6d 6c 82 be 78 e4 54 3e 17 51 80 be
       -0.09611939 -0.25473347 0.20790279 -0.25061867
000040 33 20 8d 3d 07 08 68 be 7a 0a e0 be 97 9f c1 3c
       0.06890907 -0.22659312 -0.43757993 0.023635669
000050 e8 42 12 be 05 72 4b 3c
       -0.14283335 0.012417321
